…
    "model = Model(inputs=[left_input, right_input], outputs=[malstm_distance])"
   ]
  },
  {
   "cell_type": "code",
   "execution_count": 27,
   "metadata": {},
   "outputs": [
    {
     "name": "stdout",
     "output_type": "stream",
     "text": [
      "__________________________________________________________________________________________________\n",
      "Layer (type)                    Output Shape         Param #     Connected to                     \n",
      "==================================================================================================\n",
      "input_3 (InputLayer)            (None, 50)           0                                            \n",
      "__________________________________________________________________________________________________\n",
      "input_4 (InputLayer)            (None, 50)           0                                            \n",
      "__________________________________________________________________________________________________\n",
      "sequential_2 (Sequential)       (None, 16)           2176        input_3[0][0]                    \n",
      "                                                                 input_4[0][0]                    \n",
      "__________________________________________________________________________________________________\n",
      "man_dist_2 (ManDist)            (None, 1)            0           sequential_2[1][0]               \n",
      "                                                                 sequential_2[2][0]               \n",
      "==================================================================================================\n",
      "Total params: 2,176\n",
      "Trainable params: 2,176\n",
      "Non-trainable params: 0\n",
      "__________________________________________________________________________________________________\n",
      "_________________________________________________________________\n",
      "Layer (type)                 Output Shape              Param #   \n",
      "=================================================================\n",
      "dense_7 (Dense)              (None, 16)                816       \n",
      "_________________________________________________________________\n",
      "activation_7 (Activation)    (None, 16)                0         \n",
      "_________________________________________________________________\n",
      "alpha_dropout_7 (AlphaDropou (None, 16)                0         \n",
      "_________________________________________________________________\n",
      "dense_8 (Dense)              (None, 16)                272       \n",
      "_________________________________________________________________\n",
      "activation_8 (Activation)    (None, 16)                0         \n",
      "_________________________________________________________________\n",
      "alpha_dropout_8 (AlphaDropou (None, 16)                0         \n",
      "_________________________________________________________________\n",
      "dense_9 (Dense)              (None, 16)                272       \n",
      "_________________________________________________________________\n",
      "activation_9 (Activation)    (None, 16)                0         \n",
      "_________________________________________________________________\n",
      "alpha_dropout_9 (AlphaDropou (None, 16)                0         \n",
      "_________________________________________________________________\n",
      "dense_10 (Dense)             (None, 16)                272       \n",
      "_________________________________________________________________\n",
      "activation_10 (Activation)   (None, 16)                0         \n",
      "_________________________________________________________________\n",
      "alpha_dropout_10 (AlphaDropo (None, 16)                0         \n",
      "_________________________________________________________________\n",
      "dense_11 (Dense)             (None, 16)                272       \n",
      "_________________________________________________________________\n",
      "activation_11 (Activation)   (None, 16)                0         \n",
      "_________________________________________________________________\n",
      "alpha_dropout_11 (AlphaDropo (None, 16)                0         \n",
      "_________________________________________________________________\n",
      "dense_12 (Dense)             (None, 16)                272       \n",
      "_________________________________________________________________\n",
      "activation_12 (Activation)   (None, 16)                0         \n",
      "_________________________________________________________________\n",
      "alpha_dropout_12 (AlphaDropo (None, 16)                0         \n",
      "=================================================================\n",
      "Total params: 2,176\n",
      "Trainable params: 2,176\n",
      "Non-trainable params: 0\n",
      "_________________________________________________________________\n"
     ]
    }
   ],
   "source": [
    "model.compile(loss='mean_squared_error', optimizer=\"adam\", metrics=['accuracy'])\n",
    "model.summary()\n",
…
